<?xml version="1.0" ?>
<net name="torch-jit-export" version="11">
	<layers>
		<layer id="0" name="input" type="Parameter" version="opset1">
			<data shape="1,1,1,16000" element_type="f32"/>
			<rt_info>
				<attribute name="fused_names" version="0" value="input"/>
			</rt_info>
			<output>
				<port id="0" precision="FP32" names="input">
					<dim>1</dim>
					<dim>1</dim>
					<dim>1</dim>
					<dim>16000</dim>
					<rt_info>
						<attribute name="layout" version="0" layout="[N,C,W,L]"/>
					</rt_info>
				</port>
			</output>
		</layer>
		<layer id="1" name="Multiply_5086" type="Const" version="opset1">
			<data element_type="f32" shape="64, 1, 1, 33" offset="0" size="8448"/>
			<output>
				<port id="0" precision="FP32">
					<dim>64</dim>
					<dim>1</dim>
					<dim>1</dim>
					<dim>33</dim>
				</port>
			</output>
		</layer>
		<layer id="2" name="Multiply_4939" type="Convolution" version="opset1">
			<data strides="1, 16" dilations="1, 1" pads_begin="0, 16" pads_end="0, 16" auto_pad="explicit"/>
			<rt_info>
				<attribute name="fused_names" version="0" value="125, 126, low_level_features.0.1.bias, low_level_features.0.1.running_mean, low_level_features.0.1.running_var, low_level_features.0.1.weight"/>
			</rt_info>
			<input>
				<port id="0" precision="FP32">
					<dim>1</dim>
					<dim>1</dim>
					<dim>1</dim>
					<dim>16000</dim>
				</port>
				<port id="1" precision="FP32">
					<dim>64</dim>
					<dim>1</dim>
					<dim>1</dim>
					<dim>33</dim>
				</port>
			</input>
			<output>
				<port id="2" precision="FP32">
					<dim>1</dim>
					<dim>64</dim>
					<dim>1</dim>
					<dim>1000</dim>
				</port>
			</output>
		</layer>
		<layer id="3" name="Constant_4944" type="Const" version="opset1">
			<data element_type="f32" shape="1, 64, 1, 1" offset="8448" size="256"/>
			<output>
				<port id="0" precision="FP32">
					<dim>1</dim>
					<dim>64</dim>
					<dim>1</dim>
					<dim>1</dim>
				</port>
			</output>
		</layer>
		<layer id="4" name="126" type="Add" version="opset1">
			<data auto_broadcast="numpy"/>
			<rt_info>
				<attribute name="fused_names" version="0" value="126, low_level_features.0.1.bias, low_level_features.0.1.running_mean, low_level_features.0.1.running_var, low_level_features.0.1.weight"/>
			</rt_info>
			<input>
				<port id="0" precision="FP32">
					<dim>1</dim>
					<dim>64</dim>
					<dim>1</dim>
					<dim>1000</dim>
				</port>
				<port id="1" precision="FP32">
					<dim>1</dim>
					<dim>64</dim>
					<dim>1</dim>
					<dim>1</dim>
				</port>
			</input>
			<output>
				<port id="2" precision="FP32" names="126">
					<dim>1</dim>
					<dim>64</dim>
					<dim>1</dim>
					<dim>1000</dim>
				</port>
			</output>
		</layer>
		<layer id="5" name="127" type="ReLU" version="opset1">
			<rt_info>
				<attribute name="fused_names" version="0" value="127"/>
			</rt_info>
			<input>
				<port id="0" precision="FP32">
					<dim>1</dim>
					<dim>64</dim>
					<dim>1</dim>
					<dim>1000</dim>
				</port>
			</input>
			<output>
				<port id="1" precision="FP32" names="127">
					<dim>1</dim>
					<dim>64</dim>
					<dim>1</dim>
					<dim>1000</dim>
				</port>
			</output>
		</layer>
		<layer id="6" name="Multiply_5095" type="Const" version="opset1">
			<data element_type="f32" shape="128, 64, 1, 5" offset="8704" size="163840"/>
			<output>
				<port id="0" precision="FP32">
					<dim>128</dim>
					<dim>64</dim>
					<dim>1</dim>
					<dim>5</dim>
				</port>
			</output>
		</layer>
		<layer id="7" name="Multiply_4946" type="Convolution" version="opset1">
			<data strides="1, 2" dilations="1, 1" pads_begin="0, 2" pads_end="0, 2" auto_pad="explicit"/>
			<rt_info>
				<attribute name="fused_names" version="0" value="128, 129, low_level_features.1.1.bias, low_level_features.1.1.running_mean, low_level_features.1.1.running_var, low_level_features.1.1.weight"/>
			</rt_info>
			<input>
				<port id="0" precision="FP32">
					<dim>1</dim>
					<dim>64</dim>
					<dim>1</dim>
					<dim>1000</dim>
				</port>
				<port id="1" precision="FP32">
					<dim>128</dim>
					<dim>64</dim>
					<dim>1</dim>
					<dim>5</dim>
				</port>
			</input>
			<output>
				<port id="2" precision="FP32">
					<dim>1</dim>
					<dim>128</dim>
					<dim>1</dim>
					<dim>500</dim>
				</port>
			</output>
		</layer>
		<layer id="8" name="Constant_4951" type="Const" version="opset1">
			<data element_type="f32" shape="1, 128, 1, 1" offset="172544" size="512"/>
			<output>
				<port id="0" precision="FP32">
					<dim>1</dim>
					<dim>128</dim>
					<dim>1</dim>
					<dim>1</dim>
				</port>
			</output>
		</layer>
		<layer id="9" name="129" type="Add" version="opset1">
			<data auto_broadcast="numpy"/>
			<rt_info>
				<attribute name="fused_names" version="0" value="129, low_level_features.1.1.bias, low_level_features.1.1.running_mean, low_level_features.1.1.running_var, low_level_features.1.1.weight"/>
			</rt_info>
			<input>
				<port id="0" precision="FP32">
					<dim>1</dim>
					<dim>128</dim>
					<dim>1</dim>
					<dim>500</dim>
				</port>
				<port id="1" precision="FP32">
					<dim>1</dim>
					<dim>128</dim>
					<dim>1</dim>
					<dim>1</dim>
				</port>
			</input>
			<output>
				<port id="2" precision="FP32" names="129">
					<dim>1</dim>
					<dim>128</dim>
					<dim>1</dim>
					<dim>500</dim>
				</port>
			</output>
		</layer>
		<layer id="10" name="130" type="ReLU" version="opset1">
			<rt_info>
				<attribute name="fused_names" version="0" value="130"/>
			</rt_info>
			<input>
				<port id="0" precision="FP32">
					<dim>1</dim>
					<dim>128</dim>
					<dim>1</dim>
					<dim>500</dim>
				</port>
			</input>
			<output>
				<port id="1" precision="FP32" names="130">
					<dim>1</dim>
					<dim>128</dim>
					<dim>1</dim>
					<dim>500</dim>
				</port>
			</output>
		</layer>
		<layer id="11" name="131" type="MaxPool" version="opset8">
			<data strides="1, 5" dilations="1, 1" pads_begin="0, 0" pads_end="0, 0" kernel="1, 5" rounding_type="floor" auto_pad="explicit" index_element_type="i64" axis="0"/>
			<rt_info>
				<attribute name="fused_names" version="0" value="131"/>
			</rt_info>
			<input>
				<port id="0" precision="FP32">
					<dim>1</dim>
					<dim>128</dim>
					<dim>1</dim>
					<dim>500</dim>
				</port>
			</input>
			<output>
				<port id="1" precision="FP32" names="131">
					<dim>1</dim>
					<dim>128</dim>
					<dim>1</dim>
					<dim>100</dim>
				</port>
				<port id="2" precision="I64">
					<dim>1</dim>
					<dim>128</dim>
					<dim>1</dim>
					<dim>100</dim>
				</port>
			</output>
		</layer>
		<layer id="12" name="Constant_134" type="Const" version="opset1">
			<data element_type="i64" shape="4" offset="173056" size="32"/>
			<rt_info>
				<attribute name="fused_names" version="0" value="Constant_134"/>
			</rt_info>
			<output>
				<port id="0" precision="I64">
					<dim>4</dim>
				</port>
			</output>
		</layer>
		<layer id="13" name="132" type="Transpose" version="opset1">
			<rt_info>
				<attribute name="fused_names" version="0" value="132"/>
			</rt_info>
			<input>
				<port id="0" precision="FP32">
					<dim>1</dim>
					<dim>128</dim>
					<dim>1</dim>
					<dim>100</dim>
				</port>
				<port id="1" precision="I64">
					<dim>4</dim>
				</port>
			</input>
			<output>
				<port id="2" precision="FP32" names="132">
					<dim>1</dim>
					<dim>1</dim>
					<dim>128</dim>
					<dim>100</dim>
				</port>
			</output>
		</layer>
		<layer id="14" name="Multiply_5097" type="Const" version="opset1">
			<data element_type="f32" shape="1, 1, 3, 3" offset="173088" size="36"/>
			<output>
				<port id="0" precision="FP32">
					<dim>1</dim>
					<dim>1</dim>
					<dim>3</dim>
					<dim>3</dim>
				</port>
			</output>
		</layer>
		<layer id="15" name="Multiply_4953" type="Convolution" version="opset1">
			<data strides="1, 1" dilations="1, 1" pads_begin="1, 1" pads_end="1, 1" auto_pad="explicit"/>
			<rt_info>
				<attribute name="fused_names" version="0" value="133, 134, high_level_features.0.1.bias, high_level_features.0.1.running_mean, high_level_features.0.1.running_var, high_level_features.0.1.weight"/>
			</rt_info>
			<input>
				<port id="0" precision="FP32">
					<dim>1</dim>
					<dim>1</dim>
					<dim>128</dim>
					<dim>100</dim>
				</port>
				<port id="1" precision="FP32">
					<dim>1</dim>
					<dim>1</dim>
					<dim>3</dim>
					<dim>3</dim>
				</port>
			</input>
			<output>
				<port id="2" precision="FP32">
					<dim>1</dim>
					<dim>1</dim>
					<dim>128</dim>
					<dim>100</dim>
				</port>
			</output>
		</layer>
		<layer id="16" name="Constant_4958" type="Const" version="opset1">
			<data element_type="f32" shape="1, 1, 1, 1" offset="173124" size="4"/>
			<output>
				<port id="0" precision="FP32">
					<dim>1</dim>
					<dim>1</dim>
					<dim>1</dim>
					<dim>1</dim>
				</port>
			</output>
		</layer>
		<layer id="17" name="134" type="Add" version="opset1">
			<data auto_broadcast="numpy"/>
			<rt_info>
				<attribute name="fused_names" version="0" value="134, high_level_features.0.1.bias, high_level_features.0.1.running_mean, high_level_features.0.1.running_var, high_level_features.0.1.weight"/>
			</rt_info>
			<input>
				<port id="0" precision="FP32">
					<dim>1</dim>
					<dim>1</dim>
					<dim>128</dim>
					<dim>100</dim>
				</port>
				<port id="1" precision="FP32">
					<dim>1</dim>
					<dim>1</dim>
					<dim>1</dim>
					<dim>1</dim>
				</port>
			</input>
			<output>
				<port id="2" precision="FP32" names="134">
					<dim>1</dim>
					<dim>1</dim>
					<dim>128</dim>
					<dim>100</dim>
				</port>
			</output>
		</layer>
		<layer id="18" name="135" type="ReLU" version="opset1">
			<rt_info>
				<attribute name="fused_names" version="0" value="135"/>
			</rt_info>
			<input>
				<port id="0" precision="FP32">
					<dim>1</dim>
					<dim>1</dim>
					<dim>128</dim>
					<dim>100</dim>
				</port>
			</input>
			<output>
				<port id="1" precision="FP32" names="135">
					<dim>1</dim>
					<dim>1</dim>
					<dim>128</dim>
					<dim>100</dim>
				</port>
			</output>
		</layer>
		<layer id="19" name="Multiply_5106" type="Const" version="opset1">
			<data element_type="f32" shape="64, 1, 1, 1" offset="173128" size="256"/>
			<output>
				<port id="0" precision="FP32">
					<dim>64</dim>
					<dim>1</dim>
					<dim>1</dim>
					<dim>1</dim>
				</port>
			</output>
		</layer>
		<layer id="20" name="Multiply_4960" type="Convolution" version="opset1">
			<data strides="1, 1" dilations="1, 1" pads_begin="1, 1" pads_end="1, 1" auto_pad="explicit"/>
			<rt_info>
				<attribute name="fused_names" version="0" value="136, 137, high_level_features.0.4.bias, high_level_features.0.4.running_mean, high_level_features.0.4.running_var, high_level_features.0.4.weight"/>
			</rt_info>
			<input>
				<port id="0" precision="FP32">
					<dim>1</dim>
					<dim>1</dim>
					<dim>128</dim>
					<dim>100</dim>
				</port>
				<port id="1" precision="FP32">
					<dim>64</dim>
					<dim>1</dim>
					<dim>1</dim>
					<dim>1</dim>
				</port>
			</input>
			<output>
				<port id="2" precision="FP32">
					<dim>1</dim>
					<dim>64</dim>
					<dim>130</dim>
					<dim>102</dim>
				</port>
			</output>
		</layer>
		<layer id="21" name="Constant_4965" type="Const" version="opset1">
			<data element_type="f32" shape="1, 64, 1, 1" offset="173384" size="256"/>
			<output>
				<port id="0" precision="FP32">
					<dim>1</dim>
					<dim>64</dim>
					<dim>1</dim>
					<dim>1</dim>
				</port>
			</output>
		</layer>
		<layer id="22" name="137" type="Add" version="opset1">
			<data auto_broadcast="numpy"/>
			<rt_info>
				<attribute name="fused_names" version="0" value="137, high_level_features.0.4.bias, high_level_features.0.4.running_mean, high_level_features.0.4.running_var, high_level_features.0.4.weight"/>
			</rt_info>
			<input>
				<port id="0" precision="FP32">
					<dim>1</dim>
					<dim>64</dim>
					<dim>130</dim>
					<dim>102</dim>
				</port>
				<port id="1" precision="FP32">
					<dim>1</dim>
					<dim>64</dim>
					<dim>1</dim>
					<dim>1</dim>
				</port>
			</input>
			<output>
				<port id="2" precision="FP32" names="137">
					<dim>1</dim>
					<dim>64</dim>
					<dim>130</dim>
					<dim>102</dim>
				</port>
			</output>
		</layer>
		<layer id="23" name="138" type="ReLU" version="opset1">
			<rt_info>
				<attribute name="fused_names" version="0" value="138"/>
			</rt_info>
			<input>
				<port id="0" precision="FP32">
					<dim>1</dim>
					<dim>64</dim>
					<dim>130</dim>
					<dim>102</dim>
				</port>
			</input>
			<output>
				<port id="1" precision="FP32" names="138">
					<dim>1</dim>
					<dim>64</dim>
					<dim>130</dim>
					<dim>102</dim>
				</port>
			</output>
		</layer>
		<layer id="24" name="139" type="MaxPool" version="opset8">
			<data strides="2, 2" dilations="1, 1" pads_begin="0, 0" pads_end="0, 0" kernel="2, 2" rounding_type="floor" auto_pad="explicit" index_element_type="i64" axis="0"/>
			<rt_info>
				<attribute name="fused_names" version="0" value="139"/>
			</rt_info>
			<input>
				<port id="0" precision="FP32">
					<dim>1</dim>
					<dim>64</dim>
					<dim>130</dim>
					<dim>102</dim>
				</port>
			</input>
			<output>
				<port id="1" precision="FP32" names="139">
					<dim>1</dim>
					<dim>64</dim>
					<dim>65</dim>
					<dim>51</dim>
				</port>
				<port id="2" precision="I64">
					<dim>1</dim>
					<dim>64</dim>
					<dim>65</dim>
					<dim>51</dim>
				</port>
			</output>
		</layer>
		<layer id="25" name="Multiply_5115" type="Const" version="opset1">
			<data element_type="f32" shape="64, 1, 1, 3, 3" offset="173640" size="2304"/>
			<output>
				<port id="0" precision="FP32">
					<dim>64</dim>
					<dim>1</dim>
					<dim>1</dim>
					<dim>3</dim>
					<dim>3</dim>
				</port>
			</output>
		</layer>
		<layer id="26" name="Multiply_4967" type="GroupConvolution" version="opset1">
			<data strides="1, 1" pads_begin="1, 1" pads_end="1, 1" dilations="1, 1" auto_pad="explicit"/>
			<rt_info>
				<attribute name="fused_names" version="0" value="141, high_level_features.2.1.bias, high_level_features.2.1.running_mean, high_level_features.2.1.running_var, high_level_features.2.1.weight"/>
			</rt_info>
			<input>
				<port id="0" precision="FP32">
					<dim>1</dim>
					<dim>64</dim>
					<dim>65</dim>
					<dim>51</dim>
				</port>
				<port id="1" precision="FP32">
					<dim>64</dim>
					<dim>1</dim>
					<dim>1</dim>
					<dim>3</dim>
					<dim>3</dim>
				</port>
			</input>
			<output>
				<port id="2" precision="FP32" names="140">
					<dim>1</dim>
					<dim>64</dim>
					<dim>65</dim>
					<dim>51</dim>
				</port>
			</output>
		</layer>
		<layer id="27" name="Constant_4972" type="Const" version="opset1">
			<data element_type="f32" shape="1, 64, 1, 1" offset="175944" size="256"/>
			<output>
				<port id="0" precision="FP32">
					<dim>1</dim>
					<dim>64</dim>
					<dim>1</dim>
					<dim>1</dim>
				</port>
			</output>
		</layer>
		<layer id="28" name="141" type="Add" version="opset1">
			<data auto_broadcast="numpy"/>
			<rt_info>
				<attribute name="fused_names" version="0" value="141, high_level_features.2.1.bias, high_level_features.2.1.running_mean, high_level_features.2.1.running_var, high_level_features.2.1.weight"/>
			</rt_info>
			<input>
				<port id="0" precision="FP32">
					<dim>1</dim>
					<dim>64</dim>
					<dim>65</dim>
					<dim>51</dim>
				</port>
				<port id="1" precision="FP32">
					<dim>1</dim>
					<dim>64</dim>
					<dim>1</dim>
					<dim>1</dim>
				</port>
			</input>
			<output>
				<port id="2" precision="FP32" names="141">
					<dim>1</dim>
					<dim>64</dim>
					<dim>65</dim>
					<dim>51</dim>
				</port>
			</output>
		</layer>
		<layer id="29" name="142" type="ReLU" version="opset1">
			<rt_info>
				<attribute name="fused_names" version="0" value="142"/>
			</rt_info>
			<input>
				<port id="0" precision="FP32">
					<dim>1</dim>
					<dim>64</dim>
					<dim>65</dim>
					<dim>51</dim>
				</port>
			</input>
			<output>
				<port id="1" precision="FP32" names="142">
					<dim>1</dim>
					<dim>64</dim>
					<dim>65</dim>
					<dim>51</dim>
				</port>
			</output>
		</layer>
		<layer id="30" name="Multiply_5123" type="Const" version="opset1">
			<data element_type="f32" shape="128, 64, 1, 1" offset="176200" size="32768"/>
			<output>
				<port id="0" precision="FP32">
					<dim>128</dim>
					<dim>64</dim>
					<dim>1</dim>
					<dim>1</dim>
				</port>
			</output>
		</layer>
		<layer id="31" name="Multiply_4974" type="Convolution" version="opset1">
			<data strides="1, 1" dilations="1, 1" pads_begin="1, 1" pads_end="1, 1" auto_pad="explicit"/>
			<rt_info>
				<attribute name="fused_names" version="0" value="143, 144, high_level_features.2.4.bias, high_level_features.2.4.running_mean, high_level_features.2.4.running_var, high_level_features.2.4.weight"/>
			</rt_info>
			<input>
				<port id="0" precision="FP32">
					<dim>1</dim>
					<dim>64</dim>
					<dim>65</dim>
					<dim>51</dim>
				</port>
				<port id="1" precision="FP32">
					<dim>128</dim>
					<dim>64</dim>
					<dim>1</dim>
					<dim>1</dim>
				</port>
			</input>
			<output>
				<port id="2" precision="FP32">
					<dim>1</dim>
					<dim>128</dim>
					<dim>67</dim>
					<dim>53</dim>
				</port>
			</output>
		</layer>
		<layer id="32" name="Constant_4979" type="Const" version="opset1">
			<data element_type="f32" shape="1, 128, 1, 1" offset="208968" size="512"/>
			<output>
				<port id="0" precision="FP32">
					<dim>1</dim>
					<dim>128</dim>
					<dim>1</dim>
					<dim>1</dim>
				</port>
			</output>
		</layer>
		<layer id="33" name="144" type="Add" version="opset1">
			<data auto_broadcast="numpy"/>
			<rt_info>
				<attribute name="fused_names" version="0" value="144, high_level_features.2.4.bias, high_level_features.2.4.running_mean, high_level_features.2.4.running_var, high_level_features.2.4.weight"/>
			</rt_info>
			<input>
				<port id="0" precision="FP32">
					<dim>1</dim>
					<dim>128</dim>
					<dim>67</dim>
					<dim>53</dim>
				</port>
				<port id="1" precision="FP32">
					<dim>1</dim>
					<dim>128</dim>
					<dim>1</dim>
					<dim>1</dim>
				</port>
			</input>
			<output>
				<port id="2" precision="FP32" names="144">
					<dim>1</dim>
					<dim>128</dim>
					<dim>67</dim>
					<dim>53</dim>
				</port>
			</output>
		</layer>
		<layer id="34" name="145" type="ReLU" version="opset1">
			<rt_info>
				<attribute name="fused_names" version="0" value="145"/>
			</rt_info>
			<input>
				<port id="0" precision="FP32">
					<dim>1</dim>
					<dim>128</dim>
					<dim>67</dim>
					<dim>53</dim>
				</port>
			</input>
			<output>
				<port id="1" precision="FP32" names="145">
					<dim>1</dim>
					<dim>128</dim>
					<dim>67</dim>
					<dim>53</dim>
				</port>
			</output>
		</layer>
		<layer id="35" name="Multiply_5132" type="Const" version="opset1">
			<data element_type="f32" shape="128, 1, 1, 3, 3" offset="209480" size="4608"/>
			<output>
				<port id="0" precision="FP32">
					<dim>128</dim>
					<dim>1</dim>
					<dim>1</dim>
					<dim>3</dim>
					<dim>3</dim>
				</port>
			</output>
		</layer>
		<layer id="36" name="Multiply_4981" type="GroupConvolution" version="opset1">
			<data strides="1, 1" pads_begin="1, 1" pads_end="1, 1" dilations="1, 1" auto_pad="explicit"/>
			<rt_info>
				<attribute name="fused_names" version="0" value="147, high_level_features.3.1.bias, high_level_features.3.1.running_mean, high_level_features.3.1.running_var, high_level_features.3.1.weight"/>
			</rt_info>
			<input>
				<port id="0" precision="FP32">
					<dim>1</dim>
					<dim>128</dim>
					<dim>67</dim>
					<dim>53</dim>
				</port>
				<port id="1" precision="FP32">
					<dim>128</dim>
					<dim>1</dim>
					<dim>1</dim>
					<dim>3</dim>
					<dim>3</dim>
				</port>
			</input>
			<output>
				<port id="2" precision="FP32" names="146">
					<dim>1</dim>
					<dim>128</dim>
					<dim>67</dim>
					<dim>53</dim>
				</port>
			</output>
		</layer>
		<layer id="37" name="Constant_4986" type="Const" version="opset1">
			<data element_type="f32" shape="1, 128, 1, 1" offset="214088" size="512"/>
			<output>
				<port id="0" precision="FP32">
					<dim>1</dim>
					<dim>128</dim>
					<dim>1</dim>
					<dim>1</dim>
				</port>
			</output>
		</layer>
		<layer id="38" name="147" type="Add" version="opset1">
			<data auto_broadcast="numpy"/>
			<rt_info>
				<attribute name="fused_names" version="0" value="147, high_level_features.3.1.bias, high_level_features.3.1.running_mean, high_level_features.3.1.running_var, high_level_features.3.1.weight"/>
			</rt_info>
			<input>
				<port id="0" precision="FP32">
					<dim>1</dim>
					<dim>128</dim>
					<dim>67</dim>
					<dim>53</dim>
				</port>
				<port id="1" precision="FP32">
					<dim>1</dim>
					<dim>128</dim>
					<dim>1</dim>
					<dim>1</dim>
				</port>
			</input>
			<output>
				<port id="2" precision="FP32" names="147">
					<dim>1</dim>
					<dim>128</dim>
					<dim>67</dim>
					<dim>53</dim>
				</port>
			</output>
		</layer>
		<layer id="39" name="148" type="ReLU" version="opset1">
			<rt_info>
				<attribute name="fused_names" version="0" value="148"/>
			</rt_info>
			<input>
				<port id="0" precision="FP32">
					<dim>1</dim>
					<dim>128</dim>
					<dim>67</dim>
					<dim>53</dim>
				</port>
			</input>
			<output>
				<port id="1" precision="FP32" names="148">
					<dim>1</dim>
					<dim>128</dim>
					<dim>67</dim>
					<dim>53</dim>
				</port>
			</output>
		</layer>
		<layer id="40" name="Multiply_5140" type="Const" version="opset1">
			<data element_type="f32" shape="128, 128, 1, 1" offset="214600" size="65536"/>
			<output>
				<port id="0" precision="FP32">
					<dim>128</dim>
					<dim>128</dim>
					<dim>1</dim>
					<dim>1</dim>
				</port>
			</output>
		</layer>
		<layer id="41" name="Multiply_4988" type="Convolution" version="opset1">
			<data strides="1, 1" dilations="1, 1" pads_begin="1, 1" pads_end="1, 1" auto_pad="explicit"/>
			<rt_info>
				<attribute name="fused_names" version="0" value="149, 150, high_level_features.3.4.bias, high_level_features.3.4.running_mean, high_level_features.3.4.running_var, high_level_features.3.4.weight"/>
			</rt_info>
			<input>
				<port id="0" precision="FP32">
					<dim>1</dim>
					<dim>128</dim>
					<dim>67</dim>
					<dim>53</dim>
				</port>
				<port id="1" precision="FP32">
					<dim>128</dim>
					<dim>128</dim>
					<dim>1</dim>
					<dim>1</dim>
				</port>
			</input>
			<output>
				<port id="2" precision="FP32">
					<dim>1</dim>
					<dim>128</dim>
					<dim>69</dim>
					<dim>55</dim>
				</port>
			</output>
		</layer>
		<layer id="42" name="Constant_4993" type="Const" version="opset1">
			<data element_type="f32" shape="1, 128, 1, 1" offset="280136" size="512"/>
			<output>
				<port id="0" precision="FP32">
					<dim>1</dim>
					<dim>128</dim>
					<dim>1</dim>
					<dim>1</dim>
				</port>
			</output>
		</layer>
		<layer id="43" name="150" type="Add" version="opset1">
			<data auto_broadcast="numpy"/>
			<rt_info>
				<attribute name="fused_names" version="0" value="150, high_level_features.3.4.bias, high_level_features.3.4.running_mean, high_level_features.3.4.running_var, high_level_features.3.4.weight"/>
			</rt_info>
			<input>
				<port id="0" precision="FP32">
					<dim>1</dim>
					<dim>128</dim>
					<dim>69</dim>
					<dim>55</dim>
				</port>
				<port id="1" precision="FP32">
					<dim>1</dim>
					<dim>128</dim>
					<dim>1</dim>
					<dim>1</dim>
				</port>
			</input>
			<output>
				<port id="2" precision="FP32" names="150">
					<dim>1</dim>
					<dim>128</dim>
					<dim>69</dim>
					<dim>55</dim>
				</port>
			</output>
		</layer>
		<layer id="44" name="151" type="ReLU" version="opset1">
			<rt_info>
				<attribute name="fused_names" version="0" value="151"/>
			</rt_info>
			<input>
				<port id="0" precision="FP32">
					<dim>1</dim>
					<dim>128</dim>
					<dim>69</dim>
					<dim>55</dim>
				</port>
			</input>
			<output>
				<port id="1" precision="FP32" names="151">
					<dim>1</dim>
					<dim>128</dim>
					<dim>69</dim>
					<dim>55</dim>
				</port>
			</output>
		</layer>
		<layer id="45" name="152" type="MaxPool" version="opset8">
			<data strides="2, 2" dilations="1, 1" pads_begin="0, 0" pads_end="0, 0" kernel="2, 2" rounding_type="floor" auto_pad="explicit" index_element_type="i64" axis="0"/>
			<rt_info>
				<attribute name="fused_names" version="0" value="152"/>
			</rt_info>
			<input>
				<port id="0" precision="FP32">
					<dim>1</dim>
					<dim>128</dim>
					<dim>69</dim>
					<dim>55</dim>
				</port>
			</input>
			<output>
				<port id="1" precision="FP32" names="152">
					<dim>1</dim>
					<dim>128</dim>
					<dim>34</dim>
					<dim>27</dim>
				</port>
				<port id="2" precision="I64">
					<dim>1</dim>
					<dim>128</dim>
					<dim>34</dim>
					<dim>27</dim>
				</port>
			</output>
		</layer>
		<layer id="46" name="Multiply_5149" type="Const" version="opset1">
			<data element_type="f32" shape="128, 1, 1, 3, 3" offset="280648" size="4608"/>
			<output>
				<port id="0" precision="FP32">
					<dim>128</dim>
					<dim>1</dim>
					<dim>1</dim>
					<dim>3</dim>
					<dim>3</dim>
				</port>
			</output>
		</layer>
		<layer id="47" name="Multiply_4995" type="GroupConvolution" version="opset1">
			<data strides="1, 1" pads_begin="1, 1" pads_end="1, 1" dilations="1, 1" auto_pad="explicit"/>
			<rt_info>
				<attribute name="fused_names" version="0" value="154, high_level_features.5.1.bias, high_level_features.5.1.running_mean, high_level_features.5.1.running_var, high_level_features.5.1.weight"/>
			</rt_info>
			<input>
				<port id="0" precision="FP32">
					<dim>1</dim>
					<dim>128</dim>
					<dim>34</dim>
					<dim>27</dim>
				</port>
				<port id="1" precision="FP32">
					<dim>128</dim>
					<dim>1</dim>
					<dim>1</dim>
					<dim>3</dim>
					<dim>3</dim>
				</port>
			</input>
			<output>
				<port id="2" precision="FP32" names="153">
					<dim>1</dim>
					<dim>128</dim>
					<dim>34</dim>
					<dim>27</dim>
				</port>
			</output>
		</layer>
		<layer id="48" name="Constant_5000" type="Const" version="opset1">
			<data element_type="f32" shape="1, 128, 1, 1" offset="285256" size="512"/>
			<output>
				<port id="0" precision="FP32">
					<dim>1</dim>
					<dim>128</dim>
					<dim>1</dim>
					<dim>1</dim>
				</port>
			</output>
		</layer>
		<layer id="49" name="154" type="Add" version="opset1">
			<data auto_broadcast="numpy"/>
			<rt_info>
				<attribute name="fused_names" version="0" value="154, high_level_features.5.1.bias, high_level_features.5.1.running_mean, high_level_features.5.1.running_var, high_level_features.5.1.weight"/>
			</rt_info>
			<input>
				<port id="0" precision="FP32">
					<dim>1</dim>
					<dim>128</dim>
					<dim>34</dim>
					<dim>27</dim>
				</port>
				<port id="1" precision="FP32">
					<dim>1</dim>
					<dim>128</dim>
					<dim>1</dim>
					<dim>1</dim>
				</port>
			</input>
			<output>
				<port id="2" precision="FP32" names="154">
					<dim>1</dim>
					<dim>128</dim>
					<dim>34</dim>
					<dim>27</dim>
				</port>
			</output>
		</layer>
		<layer id="50" name="155" type="ReLU" version="opset1">
			<rt_info>
				<attribute name="fused_names" version="0" value="155"/>
			</rt_info>
			<input>
				<port id="0" precision="FP32">
					<dim>1</dim>
					<dim>128</dim>
					<dim>34</dim>
					<dim>27</dim>
				</port>
			</input>
			<output>
				<port id="1" precision="FP32" names="155">
					<dim>1</dim>
					<dim>128</dim>
					<dim>34</dim>
					<dim>27</dim>
				</port>
			</output>
		</layer>
		<layer id="51" name="Multiply_5157" type="Const" version="opset1">
			<data element_type="f32" shape="256, 128, 1, 1" offset="285768" size="131072"/>
			<output>
				<port id="0" precision="FP32">
					<dim>256</dim>
					<dim>128</dim>
					<dim>1</dim>
					<dim>1</dim>
				</port>
			</output>
		</layer>
		<layer id="52" name="Multiply_5002" type="Convolution" version="opset1">
			<data strides="1, 1" dilations="1, 1" pads_begin="1, 1" pads_end="1, 1" auto_pad="explicit"/>
			<rt_info>
				<attribute name="fused_names" version="0" value="156, 157, high_level_features.5.4.bias, high_level_features.5.4.running_mean, high_level_features.5.4.running_var, high_level_features.5.4.weight"/>
			</rt_info>
			<input>
				<port id="0" precision="FP32">
					<dim>1</dim>
					<dim>128</dim>
					<dim>34</dim>
					<dim>27</dim>
				</port>
				<port id="1" precision="FP32">
					<dim>256</dim>
					<dim>128</dim>
					<dim>1</dim>
					<dim>1</dim>
				</port>
			</input>
			<output>
				<port id="2" precision="FP32">
					<dim>1</dim>
					<dim>256</dim>
					<dim>36</dim>
					<dim>29</dim>
				</port>
			</output>
		</layer>
		<layer id="53" name="Constant_5007" type="Const" version="opset1">
			<data element_type="f32" shape="1, 256, 1, 1" offset="416840" size="1024"/>
			<output>
				<port id="0" precision="FP32">
					<dim>1</dim>
					<dim>256</dim>
					<dim>1</dim>
					<dim>1</dim>
				</port>
			</output>
		</layer>
		<layer id="54" name="157" type="Add" version="opset1">
			<data auto_broadcast="numpy"/>
			<rt_info>
				<attribute name="fused_names" version="0" value="157, high_level_features.5.4.bias, high_level_features.5.4.running_mean, high_level_features.5.4.running_var, high_level_features.5.4.weight"/>
			</rt_info>
			<input>
				<port id="0" precision="FP32">
					<dim>1</dim>
					<dim>256</dim>
					<dim>36</dim>
					<dim>29</dim>
				</port>
				<port id="1" precision="FP32">
					<dim>1</dim>
					<dim>256</dim>
					<dim>1</dim>
					<dim>1</dim>
				</port>
			</input>
			<output>
				<port id="2" precision="FP32" names="157">
					<dim>1</dim>
					<dim>256</dim>
					<dim>36</dim>
					<dim>29</dim>
				</port>
			</output>
		</layer>
		<layer id="55" name="158" type="ReLU" version="opset1">
			<rt_info>
				<attribute name="fused_names" version="0" value="158"/>
			</rt_info>
			<input>
				<port id="0" precision="FP32">
					<dim>1</dim>
					<dim>256</dim>
					<dim>36</dim>
					<dim>29</dim>
				</port>
			</input>
			<output>
				<port id="1" precision="FP32" names="158">
					<dim>1</dim>
					<dim>256</dim>
					<dim>36</dim>
					<dim>29</dim>
				</port>
			</output>
		</layer>
		<layer id="56" name="Multiply_5166" type="Const" version="opset1">
			<data element_type="f32" shape="256, 1, 1, 3, 3" offset="417864" size="9216"/>
			<output>
				<port id="0" precision="FP32">
					<dim>256</dim>
					<dim>1</dim>
					<dim>1</dim>
					<dim>3</dim>
					<dim>3</dim>
				</port>
			</output>
		</layer>
		<layer id="57" name="Multiply_5009" type="GroupConvolution" version="opset1">
			<data strides="1, 1" pads_begin="1, 1" pads_end="1, 1" dilations="1, 1" auto_pad="explicit"/>
			<rt_info>
				<attribute name="fused_names" version="0" value="160, high_level_features.6.1.bias, high_level_features.6.1.running_mean, high_level_features.6.1.running_var, high_level_features.6.1.weight"/>
			</rt_info>
			<input>
				<port id="0" precision="FP32">
					<dim>1</dim>
					<dim>256</dim>
					<dim>36</dim>
					<dim>29</dim>
				</port>
				<port id="1" precision="FP32">
					<dim>256</dim>
					<dim>1</dim>
					<dim>1</dim>
					<dim>3</dim>
					<dim>3</dim>
				</port>
			</input>
			<output>
				<port id="2" precision="FP32" names="159">
					<dim>1</dim>
					<dim>256</dim>
					<dim>36</dim>
					<dim>29</dim>
				</port>
			</output>
		</layer>
		<layer id="58" name="Constant_5014" type="Const" version="opset1">
			<data element_type="f32" shape="1, 256, 1, 1" offset="427080" size="1024"/>
			<output>
				<port id="0" precision="FP32">
					<dim>1</dim>
					<dim>256</dim>
					<dim>1</dim>
					<dim>1</dim>
				</port>
			</output>
		</layer>
		<layer id="59" name="160" type="Add" version="opset1">
			<data auto_broadcast="numpy"/>
			<rt_info>
				<attribute name="fused_names" version="0" value="160, high_level_features.6.1.bias, high_level_features.6.1.running_mean, high_level_features.6.1.running_var, high_level_features.6.1.weight"/>
			</rt_info>
			<input>
				<port id="0" precision="FP32">
					<dim>1</dim>
					<dim>256</dim>
					<dim>36</dim>
					<dim>29</dim>
				</port>
				<port id="1" precision="FP32">
					<dim>1</dim>
					<dim>256</dim>
					<dim>1</dim>
					<dim>1</dim>
				</port>
			</input>
			<output>
				<port id="2" precision="FP32" names="160">
					<dim>1</dim>
					<dim>256</dim>
					<dim>36</dim>
					<dim>29</dim>
				</port>
			</output>
		</layer>
		<layer id="60" name="161" type="ReLU" version="opset1">
			<rt_info>
				<attribute name="fused_names" version="0" value="161"/>
			</rt_info>
			<input>
				<port id="0" precision="FP32">
					<dim>1</dim>
					<dim>256</dim>
					<dim>36</dim>
					<dim>29</dim>
				</port>
			</input>
			<output>
				<port id="1" precision="FP32" names="161">
					<dim>1</dim>
					<dim>256</dim>
					<dim>36</dim>
					<dim>29</dim>
				</port>
			</output>
		</layer>
		<layer id="61" name="Multiply_5174" type="Const" version="opset1">
			<data element_type="f32" shape="256, 256, 1, 1" offset="428104" size="262144"/>
			<output>
				<port id="0" precision="FP32">
					<dim>256</dim>
					<dim>256</dim>
					<dim>1</dim>
					<dim>1</dim>
				</port>
			</output>
		</layer>
		<layer id="62" name="Multiply_5016" type="Convolution" version="opset1">
			<data strides="1, 1" dilations="1, 1" pads_begin="1, 1" pads_end="1, 1" auto_pad="explicit"/>
			<rt_info>
				<attribute name="fused_names" version="0" value="162, 163, high_level_features.6.4.bias, high_level_features.6.4.running_mean, high_level_features.6.4.running_var, high_level_features.6.4.weight"/>
			</rt_info>
			<input>
				<port id="0" precision="FP32">
					<dim>1</dim>
					<dim>256</dim>
					<dim>36</dim>
					<dim>29</dim>
				</port>
				<port id="1" precision="FP32">
					<dim>256</dim>
					<dim>256</dim>
					<dim>1</dim>
					<dim>1</dim>
				</port>
			</input>
			<output>
				<port id="2" precision="FP32">
					<dim>1</dim>
					<dim>256</dim>
					<dim>38</dim>
					<dim>31</dim>
				</port>
			</output>
		</layer>
		<layer id="63" name="Constant_5021" type="Const" version="opset1">
			<data element_type="f32" shape="1, 256, 1, 1" offset="690248" size="1024"/>
			<output>
				<port id="0" precision="FP32">
					<dim>1</dim>
					<dim>256</dim>
					<dim>1</dim>
					<dim>1</dim>
				</port>
			</output>
		</layer>
		<layer id="64" name="163" type="Add" version="opset1">
			<data auto_broadcast="numpy"/>
			<rt_info>
				<attribute name="fused_names" version="0" value="163, high_level_features.6.4.bias, high_level_features.6.4.running_mean, high_level_features.6.4.running_var, high_level_features.6.4.weight"/>
			</rt_info>
			<input>
				<port id="0" precision="FP32">
					<dim>1</dim>
					<dim>256</dim>
					<dim>38</dim>
					<dim>31</dim>
				</port>
				<port id="1" precision="FP32">
					<dim>1</dim>
					<dim>256</dim>
					<dim>1</dim>
					<dim>1</dim>
				</port>
			</input>
			<output>
				<port id="2" precision="FP32" names="163">
					<dim>1</dim>
					<dim>256</dim>
					<dim>38</dim>
					<dim>31</dim>
				</port>
			</output>
		</layer>
		<layer id="65" name="164" type="ReLU" version="opset1">
			<rt_info>
				<attribute name="fused_names" version="0" value="164"/>
			</rt_info>
			<input>
				<port id="0" precision="FP32">
					<dim>1</dim>
					<dim>256</dim>
					<dim>38</dim>
					<dim>31</dim>
				</port>
			</input>
			<output>
				<port id="1" precision="FP32" names="164">
					<dim>1</dim>
					<dim>256</dim>
					<dim>38</dim>
					<dim>31</dim>
				</port>
			</output>
		</layer>
		<layer id="66" name="165" type="MaxPool" version="opset8">
			<data strides="2, 2" dilations="1, 1" pads_begin="0, 0" pads_end="0, 0" kernel="2, 2" rounding_type="floor" auto_pad="explicit" index_element_type="i64" axis="0"/>
			<rt_info>
				<attribute name="fused_names" version="0" value="165"/>
			</rt_info>
			<input>
				<port id="0" precision="FP32">
					<dim>1</dim>
					<dim>256</dim>
					<dim>38</dim>
					<dim>31</dim>
				</port>
			</input>
			<output>
				<port id="1" precision="FP32" names="165">
					<dim>1</dim>
					<dim>256</dim>
					<dim>19</dim>
					<dim>15</dim>
				</port>
				<port id="2" precision="I64">
					<dim>1</dim>
					<dim>256</dim>
					<dim>19</dim>
					<dim>15</dim>
				</port>
			</output>
		</layer>
		<layer id="67" name="Multiply_5183" type="Const" version="opset1">
			<data element_type="f32" shape="256, 1, 1, 3, 3" offset="691272" size="9216"/>
			<output>
				<port id="0" precision="FP32">
					<dim>256</dim>
					<dim>1</dim>
					<dim>1</dim>
					<dim>3</dim>
					<dim>3</dim>
				</port>
			</output>
		</layer>
		<layer id="68" name="Multiply_5023" type="GroupConvolution" version="opset1">
			<data strides="1, 1" pads_begin="1, 1" pads_end="1, 1" dilations="1, 1" auto_pad="explicit"/>
			<rt_info>
				<attribute name="fused_names" version="0" value="167, high_level_features.8.1.bias, high_level_features.8.1.running_mean, high_level_features.8.1.running_var, high_level_features.8.1.weight"/>
			</rt_info>
			<input>
				<port id="0" precision="FP32">
					<dim>1</dim>
					<dim>256</dim>
					<dim>19</dim>
					<dim>15</dim>
				</port>
				<port id="1" precision="FP32">
					<dim>256</dim>
					<dim>1</dim>
					<dim>1</dim>
					<dim>3</dim>
					<dim>3</dim>
				</port>
			</input>
			<output>
				<port id="2" precision="FP32" names="166">
					<dim>1</dim>
					<dim>256</dim>
					<dim>19</dim>
					<dim>15</dim>
				</port>
			</output>
		</layer>
		<layer id="69" name="Constant_5028" type="Const" version="opset1">
			<data element_type="f32" shape="1, 256, 1, 1" offset="700488" size="1024"/>
			<output>
				<port id="0" precision="FP32">
					<dim>1</dim>
					<dim>256</dim>
					<dim>1</dim>
					<dim>1</dim>
				</port>
			</output>
		</layer>
		<layer id="70" name="167" type="Add" version="opset1">
			<data auto_broadcast="numpy"/>
			<rt_info>
				<attribute name="fused_names" version="0" value="167, high_level_features.8.1.bias, high_level_features.8.1.running_mean, high_level_features.8.1.running_var, high_level_features.8.1.weight"/>
			</rt_info>
			<input>
				<port id="0" precision="FP32">
					<dim>1</dim>
					<dim>256</dim>
					<dim>19</dim>
					<dim>15</dim>
				</port>
				<port id="1" precision="FP32">
					<dim>1</dim>
					<dim>256</dim>
					<dim>1</dim>
					<dim>1</dim>
				</port>
			</input>
			<output>
				<port id="2" precision="FP32" names="167">
					<dim>1</dim>
					<dim>256</dim>
					<dim>19</dim>
					<dim>15</dim>
				</port>
			</output>
		</layer>
		<layer id="71" name="168" type="ReLU" version="opset1">
			<rt_info>
				<attribute name="fused_names" version="0" value="168"/>
			</rt_info>
			<input>
				<port id="0" precision="FP32">
					<dim>1</dim>
					<dim>256</dim>
					<dim>19</dim>
					<dim>15</dim>
				</port>
			</input>
			<output>
				<port id="1" precision="FP32" names="168">
					<dim>1</dim>
					<dim>256</dim>
					<dim>19</dim>
					<dim>15</dim>
				</port>
			</output>
		</layer>
		<layer id="72" name="Multiply_5191" type="Const" version="opset1">
			<data element_type="f32" shape="512, 256, 1, 1" offset="701512" size="524288"/>
			<output>
				<port id="0" precision="FP32">
					<dim>512</dim>
					<dim>256</dim>
					<dim>1</dim>
					<dim>1</dim>
				</port>
			</output>
		</layer>
		<layer id="73" name="Multiply_5030" type="Convolution" version="opset1">
			<data strides="1, 1" dilations="1, 1" pads_begin="1, 1" pads_end="1, 1" auto_pad="explicit"/>
			<rt_info>
				<attribute name="fused_names" version="0" value="169, 170, high_level_features.8.4.bias, high_level_features.8.4.running_mean, high_level_features.8.4.running_var, high_level_features.8.4.weight"/>
			</rt_info>
			<input>
				<port id="0" precision="FP32">
					<dim>1</dim>
					<dim>256</dim>
					<dim>19</dim>
					<dim>15</dim>
				</port>
				<port id="1" precision="FP32">
					<dim>512</dim>
					<dim>256</dim>
					<dim>1</dim>
					<dim>1</dim>
				</port>
			</input>
			<output>
				<port id="2" precision="FP32">
					<dim>1</dim>
					<dim>512</dim>
					<dim>21</dim>
					<dim>17</dim>
				</port>
			</output>
		</layer>
		<layer id="74" name="Constant_5035" type="Const" version="opset1">
			<data element_type="f32" shape="1, 512, 1, 1" offset="1225800" size="2048"/>
			<output>
				<port id="0" precision="FP32">
					<dim>1</dim>
					<dim>512</dim>
					<dim>1</dim>
					<dim>1</dim>
				</port>
			</output>
		</layer>
		<layer id="75" name="170" type="Add" version="opset1">
			<data auto_broadcast="numpy"/>
			<rt_info>
				<attribute name="fused_names" version="0" value="170, high_level_features.8.4.bias, high_level_features.8.4.running_mean, high_level_features.8.4.running_var, high_level_features.8.4.weight"/>
			</rt_info>
			<input>
				<port id="0" precision="FP32">
					<dim>1</dim>
					<dim>512</dim>
					<dim>21</dim>
					<dim>17</dim>
				</port>
				<port id="1" precision="FP32">
					<dim>1</dim>
					<dim>512</dim>
					<dim>1</dim>
					<dim>1</dim>
				</port>
			</input>
			<output>
				<port id="2" precision="FP32" names="170">
					<dim>1</dim>
					<dim>512</dim>
					<dim>21</dim>
					<dim>17</dim>
				</port>
			</output>
		</layer>
		<layer id="76" name="171" type="ReLU" version="opset1">
			<rt_info>
				<attribute name="fused_names" version="0" value="171"/>
			</rt_info>
			<input>
				<port id="0" precision="FP32">
					<dim>1</dim>
					<dim>512</dim>
					<dim>21</dim>
					<dim>17</dim>
				</port>
			</input>
			<output>
				<port id="1" precision="FP32" names="171">
					<dim>1</dim>
					<dim>512</dim>
					<dim>21</dim>
					<dim>17</dim>
				</port>
			</output>
		</layer>
		<layer id="77" name="Multiply_5200" type="Const" version="opset1">
			<data element_type="f32" shape="512, 1, 1, 3, 3" offset="1227848" size="18432"/>
			<output>
				<port id="0" precision="FP32">
					<dim>512</dim>
					<dim>1</dim>
					<dim>1</dim>
					<dim>3</dim>
					<dim>3</dim>
				</port>
			</output>
		</layer>
		<layer id="78" name="Multiply_5037" type="GroupConvolution" version="opset1">
			<data strides="1, 1" pads_begin="1, 1" pads_end="1, 1" dilations="1, 1" auto_pad="explicit"/>
			<rt_info>
				<attribute name="fused_names" version="0" value="173, high_level_features.9.1.bias, high_level_features.9.1.running_mean, high_level_features.9.1.running_var, high_level_features.9.1.weight"/>
			</rt_info>
			<input>
				<port id="0" precision="FP32">
					<dim>1</dim>
					<dim>512</dim>
					<dim>21</dim>
					<dim>17</dim>
				</port>
				<port id="1" precision="FP32">
					<dim>512</dim>
					<dim>1</dim>
					<dim>1</dim>
					<dim>3</dim>
					<dim>3</dim>
				</port>
			</input>
			<output>
				<port id="2" precision="FP32" names="172">
					<dim>1</dim>
					<dim>512</dim>
					<dim>21</dim>
					<dim>17</dim>
				</port>
			</output>
		</layer>
		<layer id="79" name="Constant_5042" type="Const" version="opset1">
			<data element_type="f32" shape="1, 512, 1, 1" offset="1246280" size="2048"/>
			<output>
				<port id="0" precision="FP32">
					<dim>1</dim>
					<dim>512</dim>
					<dim>1</dim>
					<dim>1</dim>
				</port>
			</output>
		</layer>
		<layer id="80" name="173" type="Add" version="opset1">
			<data auto_broadcast="numpy"/>
			<rt_info>
				<attribute name="fused_names" version="0" value="173, high_level_features.9.1.bias, high_level_features.9.1.running_mean, high_level_features.9.1.running_var, high_level_features.9.1.weight"/>
			</rt_info>
			<input>
				<port id="0" precision="FP32">
					<dim>1</dim>
					<dim>512</dim>
					<dim>21</dim>
					<dim>17</dim>
				</port>
				<port id="1" precision="FP32">
					<dim>1</dim>
					<dim>512</dim>
					<dim>1</dim>
					<dim>1</dim>
				</port>
			</input>
			<output>
				<port id="2" precision="FP32" names="173">
					<dim>1</dim>
					<dim>512</dim>
					<dim>21</dim>
					<dim>17</dim>
				</port>
			</output>
		</layer>
		<layer id="81" name="174" type="ReLU" version="opset1">
			<rt_info>
				<attribute name="fused_names" version="0" value="174"/>
			</rt_info>
			<input>
				<port id="0" precision="FP32">
					<dim>1</dim>
					<dim>512</dim>
					<dim>21</dim>
					<dim>17</dim>
				</port>
			</input>
			<output>
				<port id="1" precision="FP32" names="174">
					<dim>1</dim>
					<dim>512</dim>
					<dim>21</dim>
					<dim>17</dim>
				</port>
			</output>
		</layer>
		<layer id="82" name="Multiply_5208" type="Const" version="opset1">
			<data element_type="f32" shape="512, 512, 1, 1" offset="1248328" size="1048576"/>
			<output>
				<port id="0" precision="FP32">
					<dim>512</dim>
					<dim>512</dim>
					<dim>1</dim>
					<dim>1</dim>
				</port>
			</output>
		</layer>
		<layer id="83" name="Multiply_5044" type="Convolution" version="opset1">
			<data strides="1, 1" dilations="1, 1" pads_begin="1, 1" pads_end="1, 1" auto_pad="explicit"/>
			<rt_info>
				<attribute name="fused_names" version="0" value="175, 176, high_level_features.9.4.bias, high_level_features.9.4.running_mean, high_level_features.9.4.running_var, high_level_features.9.4.weight"/>
			</rt_info>
			<input>
				<port id="0" precision="FP32">
					<dim>1</dim>
					<dim>512</dim>
					<dim>21</dim>
					<dim>17</dim>
				</port>
				<port id="1" precision="FP32">
					<dim>512</dim>
					<dim>512</dim>
					<dim>1</dim>
					<dim>1</dim>
				</port>
			</input>
			<output>
				<port id="2" precision="FP32">
					<dim>1</dim>
					<dim>512</dim>
					<dim>23</dim>
					<dim>19</dim>
				</port>
			</output>
		</layer>
		<layer id="84" name="Constant_5049" type="Const" version="opset1">
			<data element_type="f32" shape="1, 512, 1, 1" offset="2296904" size="2048"/>
			<output>
				<port id="0" precision="FP32">
					<dim>1</dim>
					<dim>512</dim>
					<dim>1</dim>
					<dim>1</dim>
				</port>
			</output>
		</layer>
		<layer id="85" name="176" type="Add" version="opset1">
			<data auto_broadcast="numpy"/>
			<rt_info>
				<attribute name="fused_names" version="0" value="176, high_level_features.9.4.bias, high_level_features.9.4.running_mean, high_level_features.9.4.running_var, high_level_features.9.4.weight"/>
			</rt_info>
			<input>
				<port id="0" precision="FP32">
					<dim>1</dim>
					<dim>512</dim>
					<dim>23</dim>
					<dim>19</dim>
				</port>
				<port id="1" precision="FP32">
					<dim>1</dim>
					<dim>512</dim>
					<dim>1</dim>
					<dim>1</dim>
				</port>
			</input>
			<output>
				<port id="2" precision="FP32" names="176">
					<dim>1</dim>
					<dim>512</dim>
					<dim>23</dim>
					<dim>19</dim>
				</port>
			</output>
		</layer>
		<layer id="86" name="177" type="ReLU" version="opset1">
			<rt_info>
				<attribute name="fused_names" version="0" value="177"/>
			</rt_info>
			<input>
				<port id="0" precision="FP32">
					<dim>1</dim>
					<dim>512</dim>
					<dim>23</dim>
					<dim>19</dim>
				</port>
			</input>
			<output>
				<port id="1" precision="FP32" names="177">
					<dim>1</dim>
					<dim>512</dim>
					<dim>23</dim>
					<dim>19</dim>
				</port>
			</output>
		</layer>
		<layer id="87" name="178" type="MaxPool" version="opset8">
			<data strides="2, 2" dilations="1, 1" pads_begin="0, 0" pads_end="0, 0" kernel="2, 2" rounding_type="floor" auto_pad="explicit" index_element_type="i64" axis="0"/>
			<rt_info>
				<attribute name="fused_names" version="0" value="178"/>
			</rt_info>
			<input>
				<port id="0" precision="FP32">
					<dim>1</dim>
					<dim>512</dim>
					<dim>23</dim>
					<dim>19</dim>
				</port>
			</input>
			<output>
				<port id="1" precision="FP32" names="178">
					<dim>1</dim>
					<dim>512</dim>
					<dim>11</dim>
					<dim>9</dim>
				</port>
				<port id="2" precision="I64">
					<dim>1</dim>
					<dim>512</dim>
					<dim>11</dim>
					<dim>9</dim>
				</port>
			</output>
		</layer>
		<layer id="88" name="Multiply_5217" type="Const" version="opset1">
			<data element_type="f32" shape="512, 1, 1, 3, 3" offset="2298952" size="18432"/>
			<output>
				<port id="0" precision="FP32">
					<dim>512</dim>
					<dim>1</dim>
					<dim>1</dim>
					<dim>3</dim>
					<dim>3</dim>
				</port>
			</output>
		</layer>
		<layer id="89" name="Multiply_5051" type="GroupConvolution" version="opset1">
			<data strides="1, 1" pads_begin="1, 1" pads_end="1, 1" dilations="1, 1" auto_pad="explicit"/>
			<rt_info>
				<attribute name="fused_names" version="0" value="180, high_level_features.11.1.bias, high_level_features.11.1.running_mean, high_level_features.11.1.running_var, high_level_features.11.1.weight"/>
			</rt_info>
			<input>
				<port id="0" precision="FP32">
					<dim>1</dim>
					<dim>512</dim>
					<dim>11</dim>
					<dim>9</dim>
				</port>
				<port id="1" precision="FP32">
					<dim>512</dim>
					<dim>1</dim>
					<dim>1</dim>
					<dim>3</dim>
					<dim>3</dim>
				</port>
			</input>
			<output>
				<port id="2" precision="FP32" names="179">
					<dim>1</dim>
					<dim>512</dim>
					<dim>11</dim>
					<dim>9</dim>
				</port>
			</output>
		</layer>
		<layer id="90" name="Constant_5056" type="Const" version="opset1">
			<data element_type="f32" shape="1, 512, 1, 1" offset="2317384" size="2048"/>
			<output>
				<port id="0" precision="FP32">
					<dim>1</dim>
					<dim>512</dim>
					<dim>1</dim>
					<dim>1</dim>
				</port>
			</output>
		</layer>
		<layer id="91" name="180" type="Add" version="opset1">
			<data auto_broadcast="numpy"/>
			<rt_info>
				<attribute name="fused_names" version="0" value="180, high_level_features.11.1.bias, high_level_features.11.1.running_mean, high_level_features.11.1.running_var, high_level_features.11.1.weight"/>
			</rt_info>
			<input>
				<port id="0" precision="FP32">
					<dim>1</dim>
					<dim>512</dim>
					<dim>11</dim>
					<dim>9</dim>
				</port>
				<port id="1" precision="FP32">
					<dim>1</dim>
					<dim>512</dim>
					<dim>1</dim>
					<dim>1</dim>
				</port>
			</input>
			<output>
				<port id="2" precision="FP32" names="180">
					<dim>1</dim>
					<dim>512</dim>
					<dim>11</dim>
					<dim>9</dim>
				</port>
			</output>
		</layer>
		<layer id="92" name="181" type="ReLU" version="opset1">
			<rt_info>
				<attribute name="fused_names" version="0" value="181"/>
			</rt_info>
			<input>
				<port id="0" precision="FP32">
					<dim>1</dim>
					<dim>512</dim>
					<dim>11</dim>
					<dim>9</dim>
				</port>
			</input>
			<output>
				<port id="1" precision="FP32" names="181">
					<dim>1</dim>
					<dim>512</dim>
					<dim>11</dim>
					<dim>9</dim>
				</port>
			</output>
		</layer>
		<layer id="93" name="Multiply_5225" type="Const" version="opset1">
			<data element_type="f32" shape="1024, 512, 1, 1" offset="2319432" size="2097152"/>
			<output>
				<port id="0" precision="FP32">
					<dim>1024</dim>
					<dim>512</dim>
					<dim>1</dim>
					<dim>1</dim>
				</port>
			</output>
		</layer>
		<layer id="94" name="Multiply_5058" type="Convolution" version="opset1">
			<data strides="1, 1" dilations="1, 1" pads_begin="1, 1" pads_end="1, 1" auto_pad="explicit"/>
			<rt_info>
				<attribute name="fused_names" version="0" value="182, 183, high_level_features.11.4.bias, high_level_features.11.4.running_mean, high_level_features.11.4.running_var, high_level_features.11.4.weight"/>
			</rt_info>
			<input>
				<port id="0" precision="FP32">
					<dim>1</dim>
					<dim>512</dim>
					<dim>11</dim>
					<dim>9</dim>
				</port>
				<port id="1" precision="FP32">
					<dim>1024</dim>
					<dim>512</dim>
					<dim>1</dim>
					<dim>1</dim>
				</port>
			</input>
			<output>
				<port id="2" precision="FP32">
					<dim>1</dim>
					<dim>1024</dim>
					<dim>13</dim>
					<dim>11</dim>
				</port>
			</output>
		</layer>
		<layer id="95" name="Constant_5063" type="Const" version="opset1">
			<data element_type="f32" shape="1, 1024, 1, 1" offset="4416584" size="4096"/>
			<output>
				<port id="0" precision="FP32">
					<dim>1</dim>
					<dim>1024</dim>
					<dim>1</dim>
					<dim>1</dim>
				</port>
			</output>
		</layer>
		<layer id="96" name="183" type="Add" version="opset1">
			<data auto_broadcast="numpy"/>
			<rt_info>
				<attribute name="fused_names" version="0" value="183, high_level_features.11.4.bias, high_level_features.11.4.running_mean, high_level_features.11.4.running_var, high_level_features.11.4.weight"/>
			</rt_info>
			<input>
				<port id="0" precision="FP32">
					<dim>1</dim>
					<dim>1024</dim>
					<dim>13</dim>
					<dim>11</dim>
				</port>
				<port id="1" precision="FP32">
					<dim>1</dim>
					<dim>1024</dim>
					<dim>1</dim>
					<dim>1</dim>
				</port>
			</input>
			<output>
				<port id="2" precision="FP32" names="183">
					<dim>1</dim>
					<dim>1024</dim>
					<dim>13</dim>
					<dim>11</dim>
				</port>
			</output>
		</layer>
		<layer id="97" name="184" type="ReLU" version="opset1">
			<rt_info>
				<attribute name="fused_names" version="0" value="184"/>
			</rt_info>
			<input>
				<port id="0" precision="FP32">
					<dim>1</dim>
					<dim>1024</dim>
					<dim>13</dim>
					<dim>11</dim>
				</port>
			</input>
			<output>
				<port id="1" precision="FP32" names="184">
					<dim>1</dim>
					<dim>1024</dim>
					<dim>13</dim>
					<dim>11</dim>
				</port>
			</output>
		</layer>
		<layer id="98" name="Multiply_5234" type="Const" version="opset1">
			<data element_type="f32" shape="1024, 1, 1, 3, 3" offset="4420680" size="36864"/>
			<output>
				<port id="0" precision="FP32">
					<dim>1024</dim>
					<dim>1</dim>
					<dim>1</dim>
					<dim>3</dim>
					<dim>3</dim>
				</port>
			</output>
		</layer>
		<layer id="99" name="Multiply_5065" type="GroupConvolution" version="opset1">
			<data strides="1, 1" pads_begin="1, 1" pads_end="1, 1" dilations="1, 1" auto_pad="explicit"/>
			<rt_info>
				<attribute name="fused_names" version="0" value="186, high_level_features.12.1.bias, high_level_features.12.1.running_mean, high_level_features.12.1.running_var, high_level_features.12.1.weight"/>
			</rt_info>
			<input>
				<port id="0" precision="FP32">
					<dim>1</dim>
					<dim>1024</dim>
					<dim>13</dim>
					<dim>11</dim>
				</port>
				<port id="1" precision="FP32">
					<dim>1024</dim>
					<dim>1</dim>
					<dim>1</dim>
					<dim>3</dim>
					<dim>3</dim>
				</port>
			</input>
			<output>
				<port id="2" precision="FP32" names="185">
					<dim>1</dim>
					<dim>1024</dim>
					<dim>13</dim>
					<dim>11</dim>
				</port>
			</output>
		</layer>
		<layer id="100" name="Constant_5070" type="Const" version="opset1">
			<data element_type="f32" shape="1, 1024, 1, 1" offset="4457544" size="4096"/>
			<output>
				<port id="0" precision="FP32">
					<dim>1</dim>
					<dim>1024</dim>
					<dim>1</dim>
					<dim>1</dim>
				</port>
			</output>
		</layer>
		<layer id="101" name="186" type="Add" version="opset1">
			<data auto_broadcast="numpy"/>
			<rt_info>
				<attribute name="fused_names" version="0" value="186, high_level_features.12.1.bias, high_level_features.12.1.running_mean, high_level_features.12.1.running_var, high_level_features.12.1.weight"/>
			</rt_info>
			<input>
				<port id="0" precision="FP32">
					<dim>1</dim>
					<dim>1024</dim>
					<dim>13</dim>
					<dim>11</dim>
				</port>
				<port id="1" precision="FP32">
					<dim>1</dim>
					<dim>1024</dim>
					<dim>1</dim>
					<dim>1</dim>
				</port>
			</input>
			<output>
				<port id="2" precision="FP32" names="186">
					<dim>1</dim>
					<dim>1024</dim>
					<dim>13</dim>
					<dim>11</dim>
				</port>
			</output>
		</layer>
		<layer id="102" name="187" type="ReLU" version="opset1">
			<rt_info>
				<attribute name="fused_names" version="0" value="187"/>
			</rt_info>
			<input>
				<port id="0" precision="FP32">
					<dim>1</dim>
					<dim>1024</dim>
					<dim>13</dim>
					<dim>11</dim>
				</port>
			</input>
			<output>
				<port id="1" precision="FP32" names="187">
					<dim>1</dim>
					<dim>1024</dim>
					<dim>13</dim>
					<dim>11</dim>
				</port>
			</output>
		</layer>
		<layer id="103" name="Multiply_5242" type="Const" version="opset1">
			<data element_type="f32" shape="1024, 1024, 1, 1" offset="4461640" size="4194304"/>
			<output>
				<port id="0" precision="FP32">
					<dim>1024</dim>
					<dim>1024</dim>
					<dim>1</dim>
					<dim>1</dim>
				</port>
			</output>
		</layer>
		<layer id="104" name="Multiply_5072" type="Convolution" version="opset1">
			<data strides="1, 1" dilations="1, 1" pads_begin="1, 1" pads_end="1, 1" auto_pad="explicit"/>
			<rt_info>
				<attribute name="fused_names" version="0" value="188, 189, high_level_features.12.4.bias, high_level_features.12.4.running_mean, high_level_features.12.4.running_var, high_level_features.12.4.weight"/>
			</rt_info>
			<input>
				<port id="0" precision="FP32">
					<dim>1</dim>
					<dim>1024</dim>
					<dim>13</dim>
					<dim>11</dim>
				</port>
				<port id="1" precision="FP32">
					<dim>1024</dim>
					<dim>1024</dim>
					<dim>1</dim>
					<dim>1</dim>
				</port>
			</input>
			<output>
				<port id="2" precision="FP32">
					<dim>1</dim>
					<dim>1024</dim>
					<dim>15</dim>
					<dim>13</dim>
				</port>
			</output>
		</layer>
		<layer id="105" name="Constant_5077" type="Const" version="opset1">
			<data element_type="f32" shape="1, 1024, 1, 1" offset="8655944" size="4096"/>
			<output>
				<port id="0" precision="FP32">
					<dim>1</dim>
					<dim>1024</dim>
					<dim>1</dim>
					<dim>1</dim>
				</port>
			</output>
		</layer>
		<layer id="106" name="189" type="Add" version="opset1">
			<data auto_broadcast="numpy"/>
			<rt_info>
				<attribute name="fused_names" version="0" value="189, high_level_features.12.4.bias, high_level_features.12.4.running_mean, high_level_features.12.4.running_var, high_level_features.12.4.weight"/>
			</rt_info>
			<input>
				<port id="0" precision="FP32">
					<dim>1</dim>
					<dim>1024</dim>
					<dim>15</dim>
					<dim>13</dim>
				</port>
				<port id="1" precision="FP32">
					<dim>1</dim>
					<dim>1024</dim>
					<dim>1</dim>
					<dim>1</dim>
				</port>
			</input>
			<output>
				<port id="2" precision="FP32" names="189">
					<dim>1</dim>
					<dim>1024</dim>
					<dim>15</dim>
					<dim>13</dim>
				</port>
			</output>
		</layer>
		<layer id="107" name="190" type="ReLU" version="opset1">
			<rt_info>
				<attribute name="fused_names" version="0" value="190"/>
			</rt_info>
			<input>
				<port id="0" precision="FP32">
					<dim>1</dim>
					<dim>1024</dim>
					<dim>15</dim>
					<dim>13</dim>
				</port>
			</input>
			<output>
				<port id="1" precision="FP32" names="190">
					<dim>1</dim>
					<dim>1024</dim>
					<dim>15</dim>
					<dim>13</dim>
				</port>
			</output>
		</layer>
		<layer id="108" name="191" type="MaxPool" version="opset8">
			<data strides="2, 2" dilations="1, 1" pads_begin="0, 0" pads_end="0, 0" kernel="2, 2" rounding_type="floor" auto_pad="explicit" index_element_type="i64" axis="0"/>
			<rt_info>
				<attribute name="fused_names" version="0" value="191"/>
			</rt_info>
			<input>
				<port id="0" precision="FP32">
					<dim>1</dim>
					<dim>1024</dim>
					<dim>15</dim>
					<dim>13</dim>
				</port>
			</input>
			<output>
				<port id="1" precision="FP32" names="191">
					<dim>1</dim>
					<dim>1024</dim>
					<dim>7</dim>
					<dim>6</dim>
				</port>
				<port id="2" precision="I64">
					<dim>1</dim>
					<dim>1024</dim>
					<dim>7</dim>
					<dim>6</dim>
				</port>
			</output>
		</layer>
		<layer id="109" name="high_level_features.14.weight" type="Const" version="opset1">
			<data element_type="f32" shape="512, 1024, 1, 1" offset="8660040" size="2097152"/>
			<rt_info>
				<attribute name="fused_names" version="0" value="high_level_features.14.weight"/>
			</rt_info>
			<output>
				<port id="0" precision="FP32" names="high_level_features.14.weight">
					<dim>512</dim>
					<dim>1024</dim>
					<dim>1</dim>
					<dim>1</dim>
				</port>
			</output>
		</layer>
		<layer id="110" name="Convolution_797" type="Convolution" version="opset1">
			<data strides="1, 1" dilations="1, 1" pads_begin="0, 0" pads_end="0, 0" auto_pad="explicit"/>
			<rt_info>
				<attribute name="fused_names" version="0" value="Convolution_797"/>
			</rt_info>
			<input>
				<port id="0" precision="FP32">
					<dim>1</dim>
					<dim>1024</dim>
					<dim>7</dim>
					<dim>6</dim>
				</port>
				<port id="1" precision="FP32">
					<dim>512</dim>
					<dim>1024</dim>
					<dim>1</dim>
					<dim>1</dim>
				</port>
			</input>
			<output>
				<port id="2" precision="FP32">
					<dim>1</dim>
					<dim>512</dim>
					<dim>7</dim>
					<dim>6</dim>
				</port>
			</output>
		</layer>
		<layer id="111" name="Reshape_817" type="Const" version="opset1">
			<data element_type="f32" shape="1, 512, 1, 1" offset="10757192" size="2048"/>
			<output>
				<port id="0" precision="FP32">
					<dim>1</dim>
					<dim>512</dim>
					<dim>1</dim>
					<dim>1</dim>
				</port>
			</output>
		</layer>
		<layer id="112" name="192" type="Add" version="opset1">
			<data auto_broadcast="numpy"/>
			<rt_info>
				<attribute name="fused_names" version="0" value="192, Concat_816, Reshape_817"/>
			</rt_info>
			<input>
				<port id="0" precision="FP32">
					<dim>1</dim>
					<dim>512</dim>
					<dim>7</dim>
					<dim>6</dim>
				</port>
				<port id="1" precision="FP32">
					<dim>1</dim>
					<dim>512</dim>
					<dim>1</dim>
					<dim>1</dim>
				</port>
			</input>
			<output>
				<port id="2" precision="FP32" names="192">
					<dim>1</dim>
					<dim>512</dim>
					<dim>7</dim>
					<dim>6</dim>
				</port>
			</output>
		</layer>
		<layer id="113" name="Range_852" type="Const" version="opset1">
			<data element_type="i64" shape="2" offset="10759240" size="16"/>
			<output>
				<port id="0" precision="I64">
					<dim>2</dim>
				</port>
			</output>
		</layer>
		<layer id="114" name="193" type="ReduceMean" version="opset1">
			<data keep_dims="true"/>
			<rt_info>
				<attribute name="fused_names" version="0" value="193, Range_852"/>
			</rt_info>
			<input>
				<port id="0" precision="FP32">
					<dim>1</dim>
					<dim>512</dim>
					<dim>7</dim>
					<dim>6</dim>
				</port>
				<port id="1" precision="I64">
					<dim>2</dim>
				</port>
			</input>
			<output>
				<port id="2" precision="FP32" names="193">
					<dim>1</dim>
					<dim>512</dim>
					<dim>1</dim>
					<dim>1</dim>
				</port>
			</output>
		</layer>
		<layer id="115" name="200" type="Const" version="opset1">
			<data element_type="i64" shape="2" offset="10759256" size="16"/>
			<rt_info>
				<attribute name="fused_names" version="0" value="199, 200"/>
			</rt_info>
			<output>
				<port id="0" precision="I64">
					<dim>2</dim>
				</port>
			</output>
		</layer>
		<layer id="116" name="201" type="Reshape" version="opset1">
			<data special_zero="true"/>
			<rt_info>
				<attribute name="fused_names" version="0" value="201"/>
			</rt_info>
			<input>
				<port id="0" precision="FP32">
					<dim>1</dim>
					<dim>512</dim>
					<dim>1</dim>
					<dim>1</dim>
				</port>
				<port id="1" precision="I64">
					<dim>2</dim>
				</port>
			</input>
			<output>
				<port id="2" precision="FP32" names="201">
					<dim>1</dim>
					<dim>512</dim>
				</port>
			</output>
		</layer>
		<layer id="117" name="202" type="ReLU" version="opset1">
			<rt_info>
				<attribute name="fused_names" version="0" value="202"/>
			</rt_info>
			<input>
				<port id="0" precision="FP32">
					<dim>1</dim>
					<dim>512</dim>
				</port>
			</input>
			<output>
				<port id="1" precision="FP32" names="202">
					<dim>1</dim>
					<dim>512</dim>
				</port>
			</output>
		</layer>
		<layer id="118" name="classifier.2.weight" type="Const" version="opset1">
			<data element_type="f32" shape="53, 512" offset="10759272" size="108544"/>
			<rt_info>
				<attribute name="fused_names" version="0" value="classifier.2.weight"/>
			</rt_info>
			<output>
				<port id="0" precision="FP32" names="classifier.2.weight">
					<dim>53</dim>
					<dim>512</dim>
				</port>
			</output>
		</layer>
		<layer id="119" name="MatMul_923" type="MatMul" version="opset1">
			<data transpose_a="false" transpose_b="true"/>
			<rt_info>
				<attribute name="fused_names" version="0" value="MatMul_923"/>
			</rt_info>
			<input>
				<port id="0" precision="FP32">
					<dim>1</dim>
					<dim>512</dim>
				</port>
				<port id="1" precision="FP32">
					<dim>53</dim>
					<dim>512</dim>
				</port>
			</input>
			<output>
				<port id="2" precision="FP32">
					<dim>1</dim>
					<dim>53</dim>
				</port>
			</output>
		</layer>
		<layer id="120" name="Constant_5381" type="Const" version="opset1">
			<data element_type="f32" shape="1, 53" offset="10867816" size="212"/>
			<output>
				<port id="0" precision="FP32">
					<dim>1</dim>
					<dim>53</dim>
				</port>
			</output>
		</layer>
		<layer id="121" name="203" type="Add" version="opset1">
			<data auto_broadcast="numpy"/>
			<rt_info>
				<attribute name="fused_names" version="0" value="203, Multiply_924"/>
			</rt_info>
			<input>
				<port id="0" precision="FP32">
					<dim>1</dim>
					<dim>53</dim>
				</port>
				<port id="1" precision="FP32">
					<dim>1</dim>
					<dim>53</dim>
				</port>
			</input>
			<output>
				<port id="2" precision="FP32" names="203">
					<dim>1</dim>
					<dim>53</dim>
				</port>
			</output>
		</layer>
		<layer id="122" name="output" type="SoftMax" version="opset8">
			<data axis="1"/>
			<rt_info>
				<attribute name="fused_names" version="0" value="output"/>
			</rt_info>
			<input>
				<port id="0" precision="FP32">
					<dim>1</dim>
					<dim>53</dim>
				</port>
			</input>
			<output>
				<port id="1" precision="FP32" names="output">
					<dim>1</dim>
					<dim>53</dim>
				</port>
			</output>
		</layer>
		<layer id="123" name="output/sink_port_0" type="Result" version="opset1">
			<rt_info>
				<attribute name="fused_names" version="0" value="output/sink_port_0"/>
			</rt_info>
			<input>
				<port id="0" precision="FP32">
					<dim>1</dim>
					<dim>53</dim>
				</port>
			</input>
		</layer>
	</layers>
	<edges>
		<edge from-layer="0" from-port="0" to-layer="2" to-port="0"/>
		<edge from-layer="1" from-port="0" to-layer="2" to-port="1"/>
		<edge from-layer="2" from-port="2" to-layer="4" to-port="0"/>
		<edge from-layer="3" from-port="0" to-layer="4" to-port="1"/>
		<edge from-layer="4" from-port="2" to-layer="5" to-port="0"/>
		<edge from-layer="5" from-port="1" to-layer="7" to-port="0"/>
		<edge from-layer="6" from-port="0" to-layer="7" to-port="1"/>
		<edge from-layer="7" from-port="2" to-layer="9" to-port="0"/>
		<edge from-layer="8" from-port="0" to-layer="9" to-port="1"/>
		<edge from-layer="9" from-port="2" to-layer="10" to-port="0"/>
		<edge from-layer="10" from-port="1" to-layer="11" to-port="0"/>
		<edge from-layer="11" from-port="1" to-layer="13" to-port="0"/>
		<edge from-layer="12" from-port="0" to-layer="13" to-port="1"/>
		<edge from-layer="13" from-port="2" to-layer="15" to-port="0"/>
		<edge from-layer="14" from-port="0" to-layer="15" to-port="1"/>
		<edge from-layer="15" from-port="2" to-layer="17" to-port="0"/>
		<edge from-layer="16" from-port="0" to-layer="17" to-port="1"/>
		<edge from-layer="17" from-port="2" to-layer="18" to-port="0"/>
		<edge from-layer="18" from-port="1" to-layer="20" to-port="0"/>
		<edge from-layer="19" from-port="0" to-layer="20" to-port="1"/>
		<edge from-layer="20" from-port="2" to-layer="22" to-port="0"/>
		<edge from-layer="21" from-port="0" to-layer="22" to-port="1"/>
		<edge from-layer="22" from-port="2" to-layer="23" to-port="0"/>
		<edge from-layer="23" from-port="1" to-layer="24" to-port="0"/>
		<edge from-layer="24" from-port="1" to-layer="26" to-port="0"/>
		<edge from-layer="25" from-port="0" to-layer="26" to-port="1"/>
		<edge from-layer="26" from-port="2" to-layer="28" to-port="0"/>
		<edge from-layer="27" from-port="0" to-layer="28" to-port="1"/>
		<edge from-layer="28" from-port="2" to-layer="29" to-port="0"/>
		<edge from-layer="29" from-port="1" to-layer="31" to-port="0"/>
		<edge from-layer="30" from-port="0" to-layer="31" to-port="1"/>
		<edge from-layer="31" from-port="2" to-layer="33" to-port="0"/>
		<edge from-layer="32" from-port="0" to-layer="33" to-port="1"/>
		<edge from-layer="33" from-port="2" to-layer="34" to-port="0"/>
		<edge from-layer="34" from-port="1" to-layer="36" to-port="0"/>
		<edge from-layer="35" from-port="0" to-layer="36" to-port="1"/>
		<edge from-layer="36" from-port="2" to-layer="38" to-port="0"/>
		<edge from-layer="37" from-port="0" to-layer="38" to-port="1"/>
		<edge from-layer="38" from-port="2" to-layer="39" to-port="0"/>
		<edge from-layer="39" from-port="1" to-layer="41" to-port="0"/>
		<edge from-layer="40" from-port="0" to-layer="41" to-port="1"/>
		<edge from-layer="41" from-port="2" to-layer="43" to-port="0"/>
		<edge from-layer="42" from-port="0" to-layer="43" to-port="1"/>
		<edge from-layer="43" from-port="2" to-layer="44" to-port="0"/>
		<edge from-layer="44" from-port="1" to-layer="45" to-port="0"/>
		<edge from-layer="45" from-port="1" to-layer="47" to-port="0"/>
		<edge from-layer="46" from-port="0" to-layer="47" to-port="1"/>
		<edge from-layer="47" from-port="2" to-layer="49" to-port="0"/>
		<edge from-layer="48" from-port="0" to-layer="49" to-port="1"/>
		<edge from-layer="49" from-port="2" to-layer="50" to-port="0"/>
		<edge from-layer="50" from-port="1" to-layer="52" to-port="0"/>
		<edge from-layer="51" from-port="0" to-layer="52" to-port="1"/>
		<edge from-layer="52" from-port="2" to-layer="54" to-port="0"/>
		<edge from-layer="53" from-port="0" to-layer="54" to-port="1"/>
		<edge from-layer="54" from-port="2" to-layer="55" to-port="0"/>
		<edge from-layer="55" from-port="1" to-layer="57" to-port="0"/>
		<edge from-layer="56" from-port="0" to-layer="57" to-port="1"/>
		<edge from-layer="57" from-port="2" to-layer="59" to-port="0"/>
		<edge from-layer="58" from-port="0" to-layer="59" to-port="1"/>
		<edge from-layer="59" from-port="2" to-layer="60" to-port="0"/>
		<edge from-layer="60" from-port="1" to-layer="62" to-port="0"/>
		<edge from-layer="61" from-port="0" to-layer="62" to-port="1"/>
		<edge from-layer="62" from-port="2" to-layer="64" to-port="0"/>
		<edge from-layer="63" from-port="0" to-layer="64" to-port="1"/>
		<edge from-layer="64" from-port="2" to-layer="65" to-port="0"/>
		<edge from-layer="65" from-port="1" to-layer="66" to-port="0"/>
		<edge from-layer="66" from-port="1" to-layer="68" to-port="0"/>
		<edge from-layer="67" from-port="0" to-layer="68" to-port="1"/>
		<edge from-layer="68" from-port="2" to-layer="70" to-port="0"/>
		<edge from-layer="69" from-port="0" to-layer="70" to-port="1"/>
		<edge from-layer="70" from-port="2" to-layer="71" to-port="0"/>
		<edge from-layer="71" from-port="1" to-layer="73" to-port="0"/>
		<edge from-layer="72" from-port="0" to-layer="73" to-port="1"/>
		<edge from-layer="73" from-port="2" to-layer="75" to-port="0"/>
		<edge from-layer="74" from-port="0" to-layer="75" to-port="1"/>
		<edge from-layer="75" from-port="2" to-layer="76" to-port="0"/>
		<edge from-layer="76" from-port="1" to-layer="78" to-port="0"/>
		<edge from-layer="77" from-port="0" to-layer="78" to-port="1"/>
		<edge from-layer="78" from-port="2" to-layer="80" to-port="0"/>
		<edge from-layer="79" from-port="0" to-layer="80" to-port="1"/>
		<edge from-layer="80" from-port="2" to-layer="81" to-port="0"/>
		<edge from-layer="81" from-port="1" to-layer="83" to-port="0"/>
		<edge from-layer="82" from-port="0" to-layer="83" to-port="1"/>
		<edge from-layer="83" from-port="2" to-layer="85" to-port="0"/>
		<edge from-layer="84" from-port="0" to-layer="85" to-port="1"/>
		<edge from-layer="85" from-port="2" to-layer="86" to-port="0"/>
		<edge from-layer="86" from-port="1" to-layer="87" to-port="0"/>
		<edge from-layer="87" from-port="1" to-layer="89" to-port="0"/>
		<edge from-layer="88" from-port="0" to-layer="89" to-port="1"/>
		<edge from-layer="89" from-port="2" to-layer="91" to-port="0"/>
		<edge from-layer="90" from-port="0" to-layer="91" to-port="1"/>
		<edge from-layer="91" from-port="2" to-layer="92" to-port="0"/>
		<edge from-layer="92" from-port="1" to-layer="94" to-port="0"/>
		<edge from-layer="93" from-port="0" to-layer="94" to-port="1"/>
		<edge from-layer="94" from-port="2" to-layer="96" to-port="0"/>
		<edge from-layer="95" from-port="0" to-layer="96" to-port="1"/>
		<edge from-layer="96" from-port="2" to-layer="97" to-port="0"/>
		<edge from-layer="97" from-port="1" to-layer="99" to-port="0"/>
		<edge from-layer="98" from-port="0" to-layer="99" to-port="1"/>
		<edge from-layer="99" from-port="2" to-layer="101" to-port="0"/>
		<edge from-layer="100" from-port="0" to-layer="101" to-port="1"/>
		<edge from-layer="101" from-port="2" to-layer="102" to-port="0"/>
		<edge from-layer="102" from-port="1" to-layer="104" to-port="0"/>
		<edge from-layer="103" from-port="0" to-layer="104" to-port="1"/>
		<edge from-layer="104" from-port="2" to-layer="106" to-port="0"/>
		<edge from-layer="105" from-port="0" to-layer="106" to-port="1"/>
		<edge from-layer="106" from-port="2" to-layer="107" to-port="0"/>
		<edge from-layer="107" from-port="1" to-layer="108" to-port="0"/>
		<edge from-layer="108" from-port="1" to-layer="110" to-port="0"/>
		<edge from-layer="109" from-port="0" to-layer="110" to-port="1"/>
		<edge from-layer="110" from-port="2" to-layer="112" to-port="0"/>
		<edge from-layer="111" from-port="0" to-layer="112" to-port="1"/>
		<edge from-layer="112" from-port="2" to-layer="114" to-port="0"/>
		<edge from-layer="113" from-port="0" to-layer="114" to-port="1"/>
		<edge from-layer="114" from-port="2" to-layer="116" to-port="0"/>
		<edge from-layer="115" from-port="0" to-layer="116" to-port="1"/>
		<edge from-layer="116" from-port="2" to-layer="117" to-port="0"/>
		<edge from-layer="117" from-port="1" to-layer="119" to-port="0"/>
		<edge from-layer="118" from-port="0" to-layer="119" to-port="1"/>
		<edge from-layer="119" from-port="2" to-layer="121" to-port="0"/>
		<edge from-layer="120" from-port="0" to-layer="121" to-port="1"/>
		<edge from-layer="121" from-port="2" to-layer="122" to-port="0"/>
		<edge from-layer="122" from-port="1" to-layer="123" to-port="0"/>
	</edges>
	<meta_data>
		<MO_version value="2022.1.0-7019-cdb9bec7210-releases/2022/1"/>
		<Runtime_version value="2022.1.0-7019-cdb9bec7210-releases/2022/1"/>
		<legacy_path value="False"/>
		<cli_parameters>
			<caffe_parser_path value="DIR"/>
			<compress_fp16 value="False"/>
			<data_type value="FP32"/>
			<disable_nhwc_to_nchw value="False"/>
			<disable_omitting_optional value="False"/>
			<disable_resnet_optimization value="False"/>
			<disable_weights_compression value="False"/>
			<enable_concat_optimization value="False"/>
			<enable_flattening_nested_params value="False"/>
			<enable_ssd_gluoncv value="False"/>
			<extensions value="DIR"/>
			<framework value="onnx"/>
			<freeze_placeholder_with_value value="{}"/>
			<input value="input"/>
			<input_model value="DIR/aclnet_des_53.onnx"/>
			<input_model_is_text value="False"/>
			<input_shape value="[1, 1, 1, 16000]"/>
			<k value="DIR/CustomLayersMapping.xml"/>
			<layout value="input(NCWL)"/>
			<layout_values value="{'input': {'source_layout': 'NCWL', 'target_layout': None, 'is_input': True}}"/>
			<legacy_mxnet_model value="False"/>
			<log_level value="ERROR"/>
			<mean_scale_values value="{}"/>
			<mean_values value="()"/>
			<model_name value="aclnet"/>
			<output value="['output']"/>
			<output_dir value="DIR"/>
			<placeholder_data_types value="{}"/>
			<placeholder_shapes value="{'input': (1, 1, 1, 16000)}"/>
			<progress value="False"/>
			<remove_memory value="False"/>
			<remove_output_softmax value="False"/>
			<reverse_input_channels value="False"/>
			<save_params_from_nd value="False"/>
			<scale_values value="()"/>
			<silent value="False"/>
			<source_layout value="()"/>
			<static_shape value="False"/>
			<stream_output value="False"/>
			<target_layout value="()"/>
			<transform value=""/>
			<use_legacy_frontend value="False"/>
			<use_new_frontend value="False"/>
			<unset unset_cli_parameters="batch, counts, disable_fusing, finegrain_fusing, input_checkpoint, input_meta_graph, input_proto, input_symbol, mean_file, mean_file_offsets, nd_prefix_name, pretrained_model_name, saved_model_dir, saved_model_tags, scale, tensorboard_logdir, tensorflow_custom_layer_libraries, tensorflow_custom_operations_config_update, tensorflow_object_detection_api_pipeline_config, tensorflow_use_custom_operations_config, transformations_config"/>
		</cli_parameters>
	</meta_data>
</net>
